net_params.pkl (torch_old, 906 bytes, 3 tensors)

0.weight f4 [10, 1]
000000 5d 1c e0 3e b6 62 23 3f a4 a0 2c bf 4b 7f 57 bf
       0.4377164 0.63822496 -0.6743262 -0.8417861
000010 80 ee e2 3d 89 c2 8b bf e8 96 98 3f 8c f6 80 3e
       0.110806465 -1.0918742 1.1921053 0.251881
000020 b9 94 84 bf 78 f4 22 bf
       -1.0357887 -0.6365428

0.bias f4 [10]
000000 23 ad aa bc 16 56 53 bf 02 ab 3b 3e 35 ce 11 bf
       -0.020834511 -0.8255323 0.18326953 -0.5695527
000010 22 56 49 bf c6 19 c7 be c7 93 9f be 0c ee 01 3e
       -0.78647053 -0.3888685 -0.31167433 0.12688464
000020 e4 cf 94 be 4e 0d 77 bf
       -0.29064858 -0.96504676

2.weight f4 [1, 10]
000000 a1 8e e3 3e 62 6c 3f be 39 d2 51 3e 3c 9d cd 3d
       0.44444755 -0.18693689 0.2049035 0.10039756
000010 f5 f5 89 be 04 ae 16 3f e3 b7 4c 3f f1 7f 4c 3e
       -0.26945463 0.58859277 0.7996809 0.19970681
000020 00 42 02 3f 38 e1 85 3d
       0.5088196 0.06537098
